models/model_first_10_23_23.pth (torch, 2304 bytes, 4 tensors)

fc1.weight f4 [15, 2]
0	0x3e6377b5	0.22213633
1	0xbf16868a	-0.5879904
2	0xbec550f9	-0.3853834
3	0x3e97e0d9	0.29663733
4	0x3dfea7d3	0.12434354
5	0xbeed47e0	-0.463439
6	0xbeaf2621	-0.34208778
7	0x3f0f134f	0.5588884
8	0x3eccf51a	0.40030748
9	0xbe84a092	-0.25903755
10	0xbe191c92	-0.14952305
11	0xbf10e0a2	-0.5659276
12	0xbc2ef3be	-0.01067823
13	0xbee50f79	-0.44738367
14	0xbeeaa04b	-0.4582542
15	0xbd061422	-0.032734044
16	0x3db6ae35	0.08919946
17	0xbe7922ea	-0.24329725
18	0x3eb47d59	0.35251883
19	0xbeb919f4	-0.36152613
20	0x3f09ffb8	0.5390582
21	0x3ed07330	0.4071288
22	0xbf004089	-0.5009847
23	0xbe17686f	-0.14785932
24	0x3cdb9a01	0.026806833
25	0x3db18452	0.08667816
26	0x3e1048c0	0.14090252
27	0x3e6ebb81	0.23313715
28	0x3d11c2a1	0.035586003
29	0xbe946a38	-0.28987288

fc1.bias f4 [15]
0	0x3dcccccd	0.1
1	0x3dcccccd	0.1
2	0x3dcccccd	0.1
3	0x3dcccccd	0.1
4	0x3dcccccd	0.1
5	0x3dcccccd	0.1
6	0x3dcccccd	0.1
7	0x3dcccccd	0.1
8	0x3dcccccd	0.1
9	0x3dcccccd	0.1
10	0x3dcccccd	0.1
11	0x3dcccccd	0.1
12	0x3dcccccd	0.1
13	0x3dcccccd	0.1
14	0x3dcccccd	0.1

fc2.weight f4 [3, 15]
0	0x3e8be052	0.2731958
1	0xbf0dc751	-0.5538226
2	0xbeaf34c1	-0.34219936
3	0xbe13ff26	-0.144528
4	0xbe8ffe09	-0.281235
5	0xbe4ed2e6	-0.20197639
6	0xbef2486c	-0.47320879
7	0xbdfb8469	-0.122811146
8	0x3dfcbf9c	0.12341234
9	0xbec09351	-0.37612393
10	0xbcf2b908	-0.029629245
11	0x3ed39b9f	0.41329667
12	0xbd731ad2	-0.05935175
13	0x3c837292	0.016045842
14	0xbd4c02d1	-0.049807373
15	0x3def4c66	0.11684494
16	0x3ebbf4ce	0.3671021
17	0x3f0c012b	0.5468928
18	0x3ebbb982	0.3666497
19	0x3f0c532d	0.54814416
20	0xbd2b0736	-0.041754924
21	0xbf04c5ff	-0.5186462
22	0xbe8c2389	-0.2737086
23	0x3ec94721	0.3931208
24	0xbb754776	-0.0037426627
25	0xbe92edb6	-0.28696984
26	0xbee28639	-0.4424303
27	0xbf0a520c	-0.54031444
28	0xbef97ddc	-0.48728836
29	0xbdefd63e	-0.11710785
30	0x3ea21c53	0.31662235
31	0x3e9fd0b8	0.31213927
32	0xbf0e8b6d	-0.55681497
33	0x3eb8645d	0.3601407
34	0xbee74ff9	-0.45178202
35	0xbdf9f96e	-0.12205778
36	0xbe6fb7d7	-0.23409973
37	0xbde3c039	-0.11120648
38	0xbde82882	-0.11335851
39	0xbf04a13c	-0.51808524
40	0xbeff3c31	-0.4985061
41	0xbdb905ff	-0.09034347
42	0x3bf4a8b0	0.007466398
43	0xbe864901	-0.26227573
44	0x3e5eb503	0.21748738

fc2.bias f4 [3]
0	0x3dcccccd	0.1
1	0x3dcccccd	0.1
2	0x3dcccccd	0.1
